…
checkpoint_path=D:\Documents\ComputerScienceYear3\PersonalProject\MWP-SS-Metrics\mwp_solver\checkpoint/graph2tree_checkpoint.pth
trained_model_path=D:\Documents\ComputerScienceYear3\PersonalProject\MWP-SS-Metrics\mwp_solver\trained_model/graph2tree_trained_model.pth
dataset_path=D:\Documents\ComputerScienceYear3\PersonalProject\MWP-SS-Metrics\mwp_solver\..\dataset
model=graph2tree
device=cuda
map_location=cuda
gpu_nums=1


Tue 15 Mar 2022 18:30:42 INFO read deprel tree infomation from D:\Documents\ComputerScienceYear3\PersonalProject\MWP-SS-Metrics\mwp_solver\..\dataset/deprel_tree_info.json ...
Tue 15 Mar 2022 18:30:47 INFO graph2tree(
  (embedder): BasicEmbedder(
    (embedder): Embedding(959, 128, padding_idx=0)
    (dropout): Dropout(p=0.5, inplace=False)
  )
  (encoder): GraphBasedEncoder(
    (encoder): GRU(128, 512, num_layers=2, dropout=0.5, bidirectional=True)
    (gcn): Graph_Module(
      (graph): ModuleList(
        (0): GCN(
          (gc1): GraphConvolution (512 -> 512)
          (gc2): GraphConvolution (512 -> 128)
        )
        (1): GCN(
          (gc1): GraphConvolution (512 -> 512)
          (gc2): GraphConvolution (512 -> 128)
        )
        (2): GCN(
          (gc1): GraphConvolution (512 -> 512)
          (gc2): GraphConvolution (512 -> 128)
        )
        (3): GCN(
          (gc1): GraphConvolution (512 -> 512)
          (gc2): GraphConvolution (512 -> 128)
        )
      )
      (feed_foward): PositionwiseFeedForward(
        (w_1): Linear(in_features=512, out_features=512, bias=True)
        (w_2): Linear(in_features=512, out_features=512, bias=True)
        (dropout): Dropout(p=0.3, inplace=False)
      )
      (norm): LayerNorm()
    )
  )
  (decoder): Prediction(
    (dropout): Dropout(p=0.5, inplace=False)
    (concat_l): Linear(in_features=512, out_features=512, bias=True)
    (concat_r): Linear(in_features=1024, out_features=512, bias=True)
    (concat_lg): Linear(in_features=512, out_features=512, bias=True)
    (concat_rg): Linear(in_features=1024, out_features=512, bias=True)
    (ops): Linear(in_features=1024, out_features=6, bias=True)
    (attn): TreeAttention(
      (attn): Linear(in_features=1024, out_features=512, bias=True)
      (score): Linear(in_features=512, out_features=1, bias=True)
    )
    (score): Score(
      (attn): Linear(in_features=1536, out_features=512, bias=True)
      (score): Linear(in_features=512, out_features=1, bias=False)
    )
  )
  (node_generater): GenerateNode(
    (embeddings): Embedding(6, 128)
    (em_dropout): Dropout(p=0.5, inplace=False)
    (generate_l): Linear(in_features=1152, out_features=512, bias=True)
    (generate_r): Linear(in_features=1152, out_features=512, bias=True)
    (generate_lg): Linear(in_features=1152, out_features=512, bias=True)
    (generate_rg): Linear(in_features=1152, out_features=512, bias=True)
  )
  (merge): Merge(
    (em_dropout): Dropout(p=0.5, inplace=False)
    (merge): Linear(in_features=1152, out_features=512, bias=True)
    (merge_g): Linear(in_features=1152, out_features=512, bias=True)
  )
)
Tue 15 Mar 2022 18:30:47 INFO start training...
Tue 15 Mar 2022 18:31:13 INFO epoch [  1] avr loss [1.34802624] | train time 0h 0m 25s
Tue 15 Mar 2022 18:35:08 INFO random_seed=2021
use_gpu=True
max_output_len=30
gpu_id=0
test_step=2
load_best_config=False
supervising_mode=fully_supervised
rebuild=False
validset_divide=True
shuffle=False
embedding_size=128
…
checkpoint_path=D:\Documents\ComputerScienceYear3\PersonalProject\MWP-SS-Metrics\mwp_solver\checkpoint/Graph2Tree_checkpoint.pth
trained_model_path=D:\Documents\ComputerScienceYear3\PersonalProject\MWP-SS-Metrics\mwp_solver\trained_model/Graph2Tree_trained_model.pth
dataset_path=D:\Documents\ComputerScienceYear3\PersonalProject\MWP-SS-Metrics\mwp_solver\..\dataset
model=Graph2Tree
device=cuda
map_location=cuda
gpu_nums=1


Tue 15 Mar 2022 20:04:31 INFO read deprel tree infomation from D:\Documents\ComputerScienceYear3\PersonalProject\MWP-SS-Metrics\mwp_solver\..\dataset/deprel_tree_info.json ...
Tue 15 Mar 2022 20:04:36 INFO Graph2Tree(
  (embedder): BasicEmbedder(
    (embedder): Embedding(1030, 128, padding_idx=0)
    (dropout): Dropout(p=0.5, inplace=False)
  )
  (encoder): GraphBasedEncoder(
    (encoder): GRU(128, 512, num_layers=2, dropout=0.5, bidirectional=True)
    (gcn): Graph_Module(
      (graph): ModuleList(
        (0): GCN(
          (gc1): GraphConvolution (512 -> 512)
          (gc2): GraphConvolution (512 -> 128)
        )
        (1): GCN(
          (gc1): GraphConvolution (512 -> 512)
          (gc2): GraphConvolution (512 -> 128)
        )
        (2): GCN(
          (gc1): GraphConvolution (512 -> 512)
          (gc2): GraphConvolution (512 -> 128)
        )
        (3): GCN(
          (gc1): GraphConvolution (512 -> 512)
          (gc2): GraphConvolution (512 -> 128)
        )
      )
      (feed_foward): PositionwiseFeedForward(
        (w_1): Linear(in_features=512, out_features=512, bias=True)
        (w_2): Linear(in_features=512, out_features=512, bias=True)
        (dropout): Dropout(p=0.3, inplace=False)
      )
      (norm): LayerNorm()
    )
  )
  (decoder): Prediction(
    (dropout): Dropout(p=0.5, inplace=False)
    (concat_l): Linear(in_features=512, out_features=512, bias=True)
    (concat_r): Linear(in_features=1024, out_features=512, bias=True)
    (concat_lg): Linear(in_features=512, out_features=512, bias=True)
    (concat_rg): Linear(in_features=1024, out_features=512, bias=True)
    (ops): Linear(in_features=1024, out_features=6, bias=True)
    (attn): TreeAttention(
      (attn): Linear(in_features=1024, out_features=512, bias=True)
      (score): Linear(in_features=512, out_features=1, bias=True)
    )
    (score): Score(
      (attn): Linear(in_features=1536, out_features=512, bias=True)
      (score): Linear(in_features=512, out_features=1, bias=False)
    )
  )
  (node_generater): GenerateNode(
    (embeddings): Embedding(6, 128)
    (em_dropout): Dropout(p=0.5, inplace=False)
    (generate_l): Linear(in_features=1152, out_features=512, bias=True)
    (generate_r): Linear(in_features=1152, out_features=512, bias=True)
    (generate_lg): Linear(in_features=1152, out_features=512, bias=True)
    (generate_rg): Linear(in_features=1152, out_features=512, bias=True)
  )
  (merge): Merge(
    (em_dropout): Dropout(p=0.5, inplace=False)
    (merge): Linear(in_features=1152, out_features=512, bias=True)
    (merge_g): Linear(in_features=1152, out_features=512, bias=True)
  )
)
Tue 15 Mar 2022 20:04:36 INFO start training...
Tue 15 Mar 2022 20:05:06 INFO epoch [  1] avr loss [1.32183220] | train time 0h 0m 29s
Tue 15 Mar 2022 20:12:42 INFO random_seed=2021
use_gpu=True
max_output_len=30
gpu_id=0
test_step=2
load_best_config=False
supervising_mode=fully_supervised
rebuild=False
validset_divide=True
shuffle=False
embedding_size=128
…
checkpoint_path=D:\Documents\ComputerScienceYear3\PersonalProject\MWP-SS-Metrics\mwp_solver\checkpoint\Graph2Tree_checkpoint.pth
trained_model_path=D:\Documents\ComputerScienceYear3\PersonalProject\MWP-SS-Metrics\mwp_solver\trained_model\Graph2Tree_trained_model.pth
dataset_path=D:\Documents\ComputerScienceYear3\PersonalProject\MWP-SS-Metrics\mwp_solver\..\dataset
model=Graph2Tree
device=cuda
map_location=cuda
gpu_nums=1


Tue 15 Mar 2022 20:54:47 INFO read deprel tree infomation from D:\Documents\ComputerScienceYear3\PersonalProject\MWP-SS-Metrics\mwp_solver\..\dataset/deprel_tree_info.json ...
Tue 15 Mar 2022 20:54:52 INFO Graph2Tree(
  (embedder): BasicEmbedder(
    (embedder): Embedding(1032, 128, padding_idx=0)
    (dropout): Dropout(p=0.5, inplace=False)
  )
  (encoder): GraphBasedEncoder(
    (encoder): GRU(128, 512, num_layers=2, dropout=0.5, bidirectional=True)
    (gcn): Graph_Module(
      (graph): ModuleList(
        (0): GCN(
          (gc1): GraphConvolution (512 -> 512)
          (gc2): GraphConvolution (512 -> 128)
        )
        (1): GCN(
          (gc1): GraphConvolution (512 -> 512)
          (gc2): GraphConvolution (512 -> 128)
        )
        (2): GCN(
          (gc1): GraphConvolution (512 -> 512)
          (gc2): GraphConvolution (512 -> 128)
        )
        (3): GCN(
          (gc1): GraphConvolution (512 -> 512)
          (gc2): GraphConvolution (512 -> 128)
        )
      )
      (feed_foward): PositionwiseFeedForward(
        (w_1): Linear(in_features=512, out_features=512, bias=True)
        (w_2): Linear(in_features=512, out_features=512, bias=True)
        (dropout): Dropout(p=0.3, inplace=False)
      )
      (norm): LayerNorm()
    )
  )
  (decoder): Prediction(
    (dropout): Dropout(p=0.5, inplace=False)
    (concat_l): Linear(in_features=512, out_features=512, bias=True)
    (concat_r): Linear(in_features=1024, out_features=512, bias=True)
    (concat_lg): Linear(in_features=512, out_features=512, bias=True)
    (concat_rg): Linear(in_features=1024, out_features=512, bias=True)
    (ops): Linear(in_features=1024, out_features=6, bias=True)
    (attn): TreeAttention(
      (attn): Linear(in_features=1024, out_features=512, bias=True)
      (score): Linear(in_features=512, out_features=1, bias=True)
    )
    (score): Score(
      (attn): Linear(in_features=1536, out_features=512, bias=True)
      (score): Linear(in_features=512, out_features=1, bias=False)
    )
  )
  (node_generater): GenerateNode(
    (embeddings): Embedding(6, 128)
    (em_dropout): Dropout(p=0.5, inplace=False)
    (generate_l): Linear(in_features=1152, out_features=512, bias=True)
    (generate_r): Linear(in_features=1152, out_features=512, bias=True)
    (generate_lg): Linear(in_features=1152, out_features=512, bias=True)
    (generate_rg): Linear(in_features=1152, out_features=512, bias=True)
  )
  (merge): Merge(
    (em_dropout): Dropout(p=0.5, inplace=False)
    (merge): Linear(in_features=1152, out_features=512, bias=True)
    (merge_g): Linear(in_features=1152, out_features=512, bias=True)
  )
)
Tue 15 Mar 2022 20:54:52 INFO start training...
Tue 15 Mar 2022 20:55:22 INFO epoch [  1] avr loss [1.44811848] | train time 0h 0m 30s
Tue 15 Mar 2022 20:59:11 INFO random_seed=2021
use_gpu=True
max_output_len=30
gpu_id=0
test_step=2
load_best_config=False
supervising_mode=fully_supervised
rebuild=False
validset_divide=True
shuffle=False
embedding_size=128
…
log_path=D:\Documents\ComputerScienceYear3\PersonalProject\MWP-SS-Metrics\mwp_solver\logs/SAUSolver_logs.log
checkpoint_path=D:\Documents\ComputerScienceYear3\PersonalProject\MWP-SS-Metrics\mwp_solver\checkpoint/SAUSolver_checkpoint.pth
trained_model_path=D:\Documents\ComputerScienceYear3\PersonalProject\MWP-SS-Metrics\mwp_solver\trained_model/SAUSolver_trained_model.pth
dataset_path=D:\Documents\ComputerScienceYear3\PersonalProject\MWP-SS-Metrics\mwp_solver\..\dataset
model=SAUSolver
device=cuda
map_location=cuda
gpu_nums=1


Wed 16 Mar 2022 01:02:22 INFO SAUSolver(
  (embedder): BasicEmbedder(
    (embedder): Embedding(1032, 128, padding_idx=0)
    (dropout): Dropout(p=0.5, inplace=False)
  )
  (encoder): BasicRNNEncoder(
    (encoder): GRU(128, 512, num_layers=2, dropout=0.5, bidirectional=True)
  )
  (decoder): Prediction(
    (dropout): Dropout(p=0.5, inplace=False)
    (concat_l): Linear(in_features=512, out_features=512, bias=True)
    (concat_r): Linear(in_features=1024, out_features=512, bias=True)
    (concat_lg): Linear(in_features=512, out_features=512, bias=True)
    (concat_rg): Linear(in_features=1024, out_features=512, bias=True)
    (ops): Linear(in_features=1024, out_features=6, bias=True)
    (attn): TreeAttention(
      (attn): Linear(in_features=1024, out_features=512, bias=True)
      (score): Linear(in_features=512, out_features=1, bias=True)
    )
    (score): Score(
      (attn): Linear(in_features=1536, out_features=512, bias=True)
      (score): Linear(in_features=512, out_features=1, bias=False)
    )
  )
  (node_generater): GenerateNode(
    (embeddings): Embedding(6, 128)
    (em_dropout): Dropout(p=0.5, inplace=False)
    (generate_l): Linear(in_features=1152, out_features=512, bias=True)
    (generate_r): Linear(in_features=1152, out_features=512, bias=True)
    (generate_lg): Linear(in_features=1152, out_features=512, bias=True)
    (generate_rg): Linear(in_features=1152, out_features=512, bias=True)
  )
  (merge): Merge(
    (em_dropout): Dropout(p=0.5, inplace=False)
    (merge): Linear(in_features=1152, out_features=512, bias=True)
    (merge_g): Linear(in_features=1152, out_features=512, bias=True)
  )
  (sa): SemanticAlignmentModule(
    (attn): TreeAttention(
      (attn): Linear(in_features=1024, out_features=512, bias=True)
      (score): Linear(in_features=512, out_features=1, bias=True)
    )
    (encoder_linear1): Linear(in_features=512, out_features=512, bias=True)
    (encoder_linear2): Linear(in_features=512, out_features=512, bias=True)
    (decoder_linear1): Linear(in_features=512, out_features=512, bias=True)
    (decoder_linear2): Linear(in_features=512, out_features=512, bias=True)
  )
)
Wed 16 Mar 2022 01:03:18 INFO random_seed=2021
use_gpu=True
max_output_len=30
gpu_id=0
test_step=2
load_best_config=False
supervising_mode=fully_supervised
rebuild=False
validset_divide=True
shuffle=False
embedding_size=128
hidden_size=512
learning_rate=0.001
embedding_learning_rate=0.001
rnn_cell_type=gru
num_layers=2
weight_decay=1e-05
epoch_nums=3
…
